src/models/elephants_drawn_with_leaves.onnx (onnx, 301496 bytes, 16 tensors)

fc.weight f4 [2, 256]
0	0xbe23c187	-0.15991794
1	0xbd8a6fa4	-0.06759575
2	0x3dc378a8	0.09544498
3	0x3db7294f	0.08943426
4	0x3e16251c	0.14662594
5	0xbe1ade0f	-0.15123771
6	0x3a264c46	0.0006343763
7	0xbd5eb3b1	-0.054370586
8	0xbe0dbad6	-0.13840804
9	0xbe4967dd	-0.19668527
10	0x3d93860f	0.07203304
11	0x3da480c0	0.080323696
12	0x3e187de6	0.14891776
13	0xbcad03a8	-0.021119907
14	0xbd97b4fd	-0.07407568
15	0xbe8c65a0	-0.27421284
16	0x3d593a82	0.053034313
17	0xbc04864c	-0.0080886595
18	0xbe459b99	-0.19297637
19	0xbe19809d	-0.14990468
20	0x3e16d9a2	0.14731458
21	0x3dd53b3f	0.10411691
22	0x3e329616	0.17440066
23	0x3e52e8f8	0.20596683
24	0x3db4f8dd	0.088365294
25	0x3e076a98	0.13224256
26	0xbe6dd1b6	-0.2322453
27	0xbe5439cf	-0.20725177
28	0xbe31a95d	-0.17349763
29	0xbdfedb58	-0.1244418
30	0x3e25e37c	0.1620006
31	0x3d8855fd	0.06657026
32	0xbe34f4ea	-0.17671552
33	0xbe2e7dea	-0.1704022
34	0xbdeabe70	-0.11462104
35	0xbcaba8ed	-0.020954574
36	0xbd2ba5d5	-0.041906197
37	0x3d23f870	0.04003185
38	0xbc1709b9	-0.009218627
39	0x3d912de5	0.07088832
40	0x3d374a8f	0.04474884
41	0xbd873773	-0.06602373
42	0x3d5915b9	0.052999232
43	0xbcb4216a	-0.02198859
44	0x3e30316f	0.17206357
45	0x3e50fe37	0.20409475
46	0x3d9a34a5	0.075295724
47	0x3ddc0b8a	0.107443884
48	0x3dbb4a07	0.09144979
49	0x3d7017c9	0.058616433
50	0xbe6d8ff2	-0.23199442
51	0xbe279087	-0.16363727
52	0xbd685ebe	-0.05673098
53	0xbdd9b03b	-0.106293164
54	0x3e2e932a	0.17048326
55	0x3df26d9b	0.11837312
56	0xbe05c04d	-0.13061638
57	0xbd15c963	-0.03656901
58	0x3cd581a5	0.026062796
59	0x3da907d9	0.0825345
60	0x3e1386c1	0.14406873
61	0x3dacfd79	0.084467836
62	0x3ddd54d6	0.10807197
63	0x3e71abe4	0.23600727
64	0x3d6fbe26	0.05853095
65	0x3ca4f9c2	0.020138625
66	0x3d1b6268	0.037935644
67	0xbd352bba	-0.044231154
68	0xbcc3d8f4	-0.023907162
69	0x3d122d8b	0.035687964
70	0xbdb7d2fb	-0.08975788
71	0x3d9b1550	0.075724244
72	0x3dff88fb	0.12477299
73	0x3dc78ae9	0.09743292
74	0xbe1de46a	-0.15419164
75	0xbe9370e6	-0.28797072
76	0x3d8140c8	0.06311184
77	0x3dfe4909	0.12416274
78	0xbce94ef0	-0.028480023
79	0x3d595d3f	0.053067442
80	0x3e08b6ec	0.13351029
81	0x3ddacc4e	0.10683499
82	0xbd741c70	-0.059597433
83	0xbe327972	-0.1742914
84	0xbda62ae4	-0.081136495
85	0x3dd40bb1	0.103537925
86	0xbe27dbb8	-0.1639241
87	0xbdb88e08	-0.09011465
88	0x3d258697	0.040411558
89	0x3dcfdadb	0.10149165
90	0xbd8a4085	-0.067505874
91	0xbde10135	-0.10986558
92	0x3e263156	0.16229758
93	0x3e4230ed	0.18963976
94	0x3e38b403	0.18037419
95	0x3e42f343	0.1903811
96	0x3cc8eb87	0.02452637
97	0xbd95ffea	-0.07324202
98	0x3c0bcfc7	0.008533425
99	0xbad022ba	-0.001587949
100	0xbe68866d	-0.2270753
101	0xbe83cae1	-0.25740722
102	0xbd72bcae	-0.05926197
103	0x3cfde3d0	0.030992419
104	0x3e083fc1	0.1330557
105	0x3e36097f	0.1777706
106	0x3df96784	0.12177947
107	0x3e521873	0.20517139
108	0x3de3ecba	0.111291364
109	0x3deeeafc	0.116659135
110	0xbdea1c7a	-0.11431213
111	0xbe2dfe5f	-0.16991566
112	0x3d9df163	0.077120565
113	0x3d9ca38c	0.076483816
114	0xbe539077	-0.20660578
115	0xbe60203a	-0.21887293
116	0x3be3fefc	0.0069578867
117	0x3e310c5a	0.17289868
118	0xbd52a840	-0.051429987
119	0xbb31e727	-0.0027145834
120	0x3e48179e	0.19540259
121	0xbc12e957	-0.008966765
122	0xbcb0950a	-0.021555442
123	0xbea1b0cb	-0.31580195
124	0xbe2a1b72	-0.16612032
125	0xbe0197ad	-0.12655516
126	0x3e245b69	0.16050495
127	0x3e2c189a	0.1680626
128	0xbe3f602b	-0.18689029
129	0xbe467f2a	-0.19384447
130	0xbc9a569b	-0.018840125
131	0x3d26a8a3	0.04068817
132	0x3d1f8a61	0.038950328
133	0xbca5d7c4	-0.020244487
134	0x3d6a93a7	0.05726972
135	0xbc381b6f	-0.011237009
136	0xbe3e566a	-0.18587652
137	0xbe7704cc	-0.24122924
138	0x3e777d8c	0.24168986
139	0x3e4f6dda	0.20256749
140	0x3b3faa0e	0.0029245648
141	0x3d6e3de7	0.058164503
142	0xbe67d9c6	-0.22641668
143	0xbe79f122	-0.24408391
144	0xbdfb4533	-0.12269058
145	0xbc01cd47	-0.007922477
146	0xbe83e4da	-0.25760537
147	0xbe678248	-0.22608292
148	0x3de848e7	0.1134203
149	0x3de13be3	0.109977506
150	0x3dc219f4	0.094776064
151	0x3d2c389e	0.04204618
152	0x3e1a8012	0.15087917
153	0xbd79af78	-0.060958356
154	0xbcf9f8d3	-0.030514156
155	0xbdeed977	-0.11662572
156	0x3e1d86f0	0.15383506
157	0x3d890129	0.066896744
158	0xbd903153	-0.07040658
159	0xbe60d9ce	-0.21958086
160	0x3e069f6b	0.1314675
161	0x3e436ff8	0.19085681
162	0xbe4288ec	-0.18997544
163	0xbe4446b0	-0.1916759
164	0xbe1e05a8	-0.15431845
165	0xbdf734e2	-0.120706335
166	0xbb6bdf33	-0.0035991191
167	0x3ca56a5f	0.020192323
168	0xbe52355c	-0.20528167
169	0xbd988bfb	-0.07448574
170	0xbdc55e2a	-0.09637101
171	0xbd148550	-0.03625995
172	0x3dcc9036	0.099884436
173	0x3db80e24	0.08987072
174	0xbe5022a4	-0.20325714
175	0xbe7ec26e	-0.24878857
176	0xbd94adeb	-0.07259735
177	0xbde5bb97	-0.112174205
178	0x3d34b3c6	0.044116758
179	0x3e1a750c	0.15083712
180	0x3de75f1f	0.1129744
181	0x3e160078	0.14648616
182	0x3daef139	0.08542103
183	0x3e3ef1ed	0.18646975
184	0xbdede2c6	-0.11615519
185	0xbe1c808f	-0.15283416
186	0xbe4dcfbc	-0.20098776
187	0xbe310973	-0.17288761
188	0xbe195b7b	-0.14976303
189	0xbe260893	-0.16214208
190	0xbb1a2aca	-0.002352404
191	0xbd7faeff	-0.06242275
192	0x3d5ee306	0.054415725
193	0xbc4df3b9	-0.012570315
194	0xbdebea64	-0.11519316
195	0xbe7e8429	-0.24855103
196	0xbda4d2a5	-0.0804799
197	0xbdda2e6d	-0.10653386
198	0xba3ecbf9	-0.0007278319
199	0x3df3ad54	0.11898294
200	0x3d4e629c	0.05038701
201	0x3da15354	0.07877222
202	0xbe663fd5	-0.22485287
203	0xbe837f3e	-0.25683016
204	0x3d62f002	0.05540467
205	0x3d48700d	0.048934985
206	0x3b574c4a	0.0032851868
207	0x3e120581	0.14259912
208	0x3dfc3fb1	0.12316836
209	0x3da9be27	0.08288222
210	0x3e2d27a3	0.16909651
211	0x3e8a4c90	0.27011538
212	0xbaf541cb	-0.0018711624
213	0x3db57f0a	0.088621214
214	0xbe2f8e06	-0.17144021
215	0xbe1ad86e	-0.15121624
216	0xbc88cce8	-0.01669927
217	0x3dcdf8c3	0.10057213
218	0xbe70acad	-0.2350337
219	0xbe18e670	-0.14931655
220	0x3d57f725	0.05272593
221	0x3e0b5b5f	0.13609074
222	0xbe4e7cf1	-0.20164849
223	0xbe3a1fcb	-0.1817619
224	0x3c6f41a8	0.014603056
225	0x3d98a158	0.07452649
226	0x3d9363c5	0.07196764
227	0x3c89d74d	0.016826296
228	0x3e1d0bbc	0.15336508
229	0xbdd901cb	-0.10596045
230	0xbd164bd9	-0.036693428
231	0xbe54b039	-0.20770349
232	0xbda7aaaa	-0.081868485
233	0xbe544ecb	-0.20733182
234	0x3e0eb2c8	0.13935387
235	0x3e1dafc3	0.15399079
236	0xbe1ad745	-0.15121181
237	0xbe1ef15b	-0.15521757
238	0xbe6f367f	-0.23360632
239	0xbdd9480b	-0.10609444
240	0xbd9f98f6	-0.07792847
241	0xbd126dcb	-0.035749238
242	0x3c3f77eb	0.0116863055
243	0xbd2db1b8	-0.042405814
244	0xbd36c8f2	-0.04462523
245	0x3b89edaa	0.00420924
246	0x3d171c9c	0.03689252
247	0x3ccad155	0.02475802
248	0x3e466fa0	0.19378519
249	0x3db6d825	0.08927945
250	0xbe4290e6	-0.19000587
251	0xbe84c4e0	-0.25931454
252	0x3cd511e6	0.026009511
253	0x3e296d6a	0.16545644
254	0xbe9c6eb6	-0.30553216
255	0xbe0633a0	-0.13105631

fc.bias f4 [2]
0	0xbd4abb8a	-0.049495257
1	0xbb927298	-0.004469227

79 f4 [16, 3, 7, 7]
0	0xbdbcd22d	-0.09219775
1	0xbd0d31a8	-0.034471184
2	0xbde2f39b	-0.1108162
3	0xbe000c23	-0.1250463
4	0xbd41a9fa	-0.047281243
5	0x3e094add	0.13407464
6	0x3d9ba090	0.07598984
7	0xbe26b174	-0.1627863
8	0xbdf2f3df	-0.11862921
9	0xbdaeccd8	-0.085351646
10	0xbdcab219	-0.09897251
11	0xbce4816c	-0.027893744
12	0x3c657630	0.014005229
13	0x3e0912ec	0.13386124
14	0xbdd9a93c	-0.10627982
15	0xbd9de8c3	-0.077104114
16	0xbc8046ff	-0.015658854
17	0xbdc5cb42	-0.09657909
18	0xbd2fe248	-0.042940408
19	0x3d4ce277	0.05002066
20	0x3e168ff6	0.14703354
21	0xbd3dd434	-0.04634495
22	0xbc366ae4	-0.011133883
23	0xbbd21934	-0.006411696
24	0x3c73c8f2	0.014879452
25	0xbdd53ea8	-0.10412341
26	0xbcb31fa6	-0.021865677
27	0x3dbf1f48	0.09332138
28	0xbb53eac0	-0.0032335967
29	0xbca2c6d6	-0.019870203
30	0xbc55ceaa	-0.013049761
31	0x3b00b4ce	0.0019639018
32	0x3d16c5ee	0.036809854
33	0x3d4d7206	0.05015757
34	0x3bb862d3	0.005627015
35	0xbdcba9f8	-0.09944528
36	0xbe0e69bf	-0.13907526
37	0xbdf68390	-0.12036812
38	0xbdad3cd8	-0.08458871
39	0xbcdf037c	-0.027223341
40	0x3d90ad09	0.07064254
41	0x3dc943fa	0.098274186
42	0xbde01b3b	-0.10942694
43	0xbdac835e	-0.08423494
44	0xbe02001e	-0.12695357
45	0xbdd7dae2	-0.105397955
46	0xbdbda883	-0.09260657
47	0x3cf2a10f	0.029617814
48	0x3e005148	0.12531006
49	0xbdeaa875	-0.11457912
50	0xbcb90b39	-0.02258836
51	0xbe0cd062	-0.13751367
52	0xbe029d9d	-0.12755437
53	0x3abd093a	0.0014422305
54	0x3d954ff0	0.072906375
55	0x3dd41165	0.1035488
56	0xbdc50fad	-0.096221305
57	0xbe18764f	-0.14888881
58	0xbd8679f9	-0.06566233
59	0xbddfe90e	-0.109331235
60	0xbd49e123	-0.049286973
61	0x3d8c925b	0.068638526
62	0x3db44805	0.08802799
63	0xbd995a37	-0.0748791
64	0xbda3b570	-0.07993591
65	0xbbefec6f	-0.0073218863
66	0xbdc756f3	-0.09733381
67	0xbde1829f	-0.11011242
68	0x3d347ef2	0.044066377
69	0x3dee78fe	0.11644171
70	0xbcf913c4	-0.030404933
71	0xbd70c5cf	-0.058782395
72	0xbd0e609d	-0.034760106
73	0xbd240b12	-0.04004962
74	0xbd67001c	-0.05639659
75	0x3d519676	0.05116888
76	0x3c9af103	0.018913751
77	0x3c77c592	0.015122788
78	0xbc8e40ec	-0.017364942
79	0xbd27611d	-0.0408641
80	0x3c5f220c	0.013618957
81	0x3c8f9865	0.017528722
82	0x3db3a286	0.08771233
83	0x3d818a0f	0.06325161
84	0xbd502324	-0.050814763
85	0xbdb5c5aa	-0.08875592
86	0xbda3d02a	-0.079986885
87	0xbd05aa8e	-0.032633357
88	0xbda5d0db	-0.08096477
89	0x3d818520	0.0632422
90	0x3df8c36a	0.12146647
91	0xbd4e5ced	-0.05038159
92	0xbd53c63a	-0.051702715
93	0xbdd0fa7a	-0.102040246
94	0xbe11e1c1	-0.14246275
95	0xbd720c82	-0.05909396
96	0x3c88f6a8	0.016719177
97	0x3dd9f883	0.10643103
98	0xbe7e9e1e	-0.24865004
99	0xbd76416d	-0.06012099
100	0xbdc272bc	-0.0949454
101	0xbd4500a3	-0.04809631
102	0xbd449ac8	-0.047999173
103	0x3e432d1a	0.19060174
104	0x3dd1e8e7	0.10249501
105	0xbe6d45ed	-0.23171206
106	0xbe2ce6ca	-0.16884914
107	0xbe05fdae	-0.13085052
108	0xbd314183	-0.043275367
109	0xbd376681	-0.04477549
110	0x3cbea93e	0.02327406
111	0x3db12525	0.08649663
112	0xbe9de510	-0.30838823
113	0xbea03430	-0.31289816
114	0xbe0a00d6	-0.13476881
115	0xbe3c6eaf	-0.18401597
116	0xbd76fc01	-0.060298923
117	0x3de54f32	0.11196746
118	0x3df8d9fe	0.12150954
119	0xbe0834d2	-0.133014
120	0xbe58f8af	-0.21188615
121	0xbe710787	-0.23538028
122	0xbdc274e1	-0.09494949
123	0xbdf3ab6f	-0.11897933
124	0x3ce2e907	0.027699007
125	0x3cf6a2ce	0.030106928
126	0xbe49c5d7	-0.19704376
127	0xbe8eb3d5	-0.27871576
128	0xbe48af43	-0.19598107
129	0xbc31066b	-0.010804753
130	0x3c79a36c	0.015236717
131	0x3d40b93e	0.04705166
132	0x3c67db39	0.014151388
133	0xbe13b502	-0.14424518
134	0xbe908089	-0.28223065
135	0xbe4f15f7	-0.20223223
136	0xbdffd8b6	-0.12492506
137	0xbd3d869a	-0.046270944
138	0x3dbd2923	0.09236362
139	0x3e22d2ab	0.15900676
140	0xbe490cce	-0.19633791
141	0xbe3f14bb	-0.18660252
142	0xbdc6b8be	-0.097032055
143	0xbe6bcf72	-0.23028353
144	0xbe38d366	-0.18049392
145	0x3da1dba4	0.07903221
146	0x3e214420	0.15748644
147	0xbe4b5ab7	-0.19858824
148	0xbd90e609	-0.07075126
149	0x3d38ea6d	0.04514544
150	0x3dadc356	0.08484523
151	0xbb8dcaa9	-0.0043271375
152	0x3dce5d42	0.10076381
153	0xbbc56218	-0.0060236566
154	0xbe9793c1	-0.29604915
155	0xbe10934b	-0.14118688
156	0x3d0df041	0.034652952
157	0x3c6e30ec	0.014538031
158	0xbcd7052b	-0.026247581
159	0x3cf94a06	0.030430805
160	0x3d193c50	0.037411034
161	0xbe28a2ab	-0.16468303
162	0xbe1ca902	-0.15298846
163	0x3e01d06a	0.1267716
164	0x3dd19649	0.10233743
165	0x3db1ddda	0.08684893
166	0x3e1ed1da	0.1550974
167	0x3e15532a	0.14582506
168	0xbe809b68	-0.25118566
169	0xbdf586d4	-0.11988607
170	0x3c7c2e3b	0.015391882
171	0x3e3992f9	0.18122472
172	0x3e2c7720	0.16842318
173	0x3e217aea	0.15769544
174	0xba4af5fb	-0.00077423424
175	0xbe6d6425	-0.23182733
176	0xbe0984aa	-0.13429514
177	0xbd72e24a	-0.059297837
178	0x3ddf28f9	0.10896487
179	0x3bf9c7ba	0.007622686
180	0xbc2881ff	-0.0102849
181	0x3d951973	0.07280245
182	0xbe6cf8dc	-0.23141807
183	0xbe2dedc9	-0.16985239
184	0xbdef7a7b	-0.11693283
185	0x3c7e065a	0.015504444
186	0x3e4ac0b2	0.1980007
187	0x3e847aff	0.2587509
188	0x3df68cbb	0.12038561
189	0xbe413fba	-0.18871966
190	0xbe04cf28	-0.12969649
191	0xbe5404d0	-0.20704961
192	0xbdea4155	-0.11438242
193	0x3de6d973	0.11271944
194	0x3e667a71	0.22507645
195	0x3e46693b	0.1937608
196	0xbe0e5291	-0.13898684
197	0xbded7ac3	-0.115956806
198	0xbb5c021b	-0.003357059
199	0x3d966672	0.07343759
200	0x3dcc7151	0.09982551
201	0x3d97bb37	0.07408755
202	0x3d93152a	0.07181771
203	0xbe90db1b	-0.28292164
204	0xbe162402	-0.14662173
205	0xbd3a0603	-0.04541589
206	0x3dce4930	0.10072553
207	0xbc07df8f	-0.008293047
208	0x3db529fd	0.08845899
209	0x3e06da72	0.13169268
210	0xbe259652	-0.16170624
211	0xbd47ad8e	-0.0487495
212	0x3dcdef9e	0.10055469
213	0x3df63d3d	0.12023399
214	0x3e2a907e	0.16656682
215	0x3e406ec3	0.18792252
216	0x3dd8b1c0	0.10580778
217	0xbe0b1d77	-0.13585459
218	0xbe0197d5	-0.12655576
219	0x3b6070a8	0.0034246836
220	0x3e5c1ed1	0.2149613
221	0x3e84bede	0.2592687
222	0x3dd58779	0.1042623
223	0xbc95e013	-0.018295323
224	0xbe4cdddf	-0.20006512
225	0xbe0b1e79	-0.13585843
226	0xbd9b0255	-0.07568804
227	0x3d24e5b1	0.040258113
228	0x3d920c47	0.07131248
229	0x3dc4e543	0.09614041
230	0x3d412682	0.047155865
231	0xbe2b60ff	-0.1673622
232	0xbdcc2d70	-0.09969604
233	0xbd568ebb	-0.052382212
234	0x3da65b1a	0.08122845
235	0x3e4a2c15	0.19743378
236	0x3e772a85	0.24137314
237	0x3e10d3e0	0.14143324
238	0xbe70006c	-0.23437661
239	0xbe056ea9	-0.13030495
240	0xbe3f1a65	-0.18662412
241	0xbdcc809e	-0.09985469
242	0x3d715f15	0.058928568
243	0x3e53e90f	0.20694374
244	0x3e1fb12c	0.1559493
245	0xbe8e646f	-0.27811
246	0xbdc3aba4	-0.09554222
247	0xbc83faf5	-0.016110877
248	0x3d6f9a44	0.05849673
249	0x3caf0a6a	0.02136727
250	0xbcc6015f	-0.024170576
251	0x3d096d0c	0.03355126
252	0xbe92b6d6	-0.28655118
253	0xbe2cd362	-0.16877511
254	0xbc6532a4	-0.013989124
255	0xbe345f8b	-0.17614572

80 f4 [16]
0	0x4002c76f	2.0434225
1	0x3c809d97	0.015700145
2	0xc00e6623	-2.224984
3	0x40226866	2.537622
4	0xc00f90ef	-2.243221
5	0xc007c8bf	-2.1216276
6	0xbe899e67	-0.26878664
7	0xbf84cc9a	-1.037494
8	0xc03bfd40	-2.9373322
9	0x3f7bcdca	0.98360884
10	0xc029b4ce	-2.6516604
11	0x4011bbde	2.2770915
12	0x4014c096	2.3242545
13	0xc02a77f0	-2.6635704
14	0xbf3b1100	-0.73072815
15	0x404ab0ca	3.1670403

82 f4 [32, 16, 3, 3]
0	0x3bc5e430	0.006039165
1	0x3d475ff7	0.048675504
2	0x3e32c6a0	0.17458582
3	0x3b6801bf	0.0035401431
4	0x3da43152	0.080172196
5	0x3e2e6bc9	0.17033304
6	0x39a88819	0.00032144858
7	0xbd0dfefa	-0.034666993
8	0x3cc1cc75	0.023657063
9	0x3d8f85bc	0.0700793
10	0x3c1e70bc	0.009670433
11	0x3d9e76e9	0.07737524
12	0x3d6ff87c	0.058586583
13	0xbcd4b066	-0.02596302
14	0xbb7683b1	-0.0037615115
15	0x3d3b33fa	0.045703866
16	0xbb9c673a	-0.0047730478
17	0xbafeeebe	-0.0019449813
18	0x3d5526f4	0.0520391
19	0x3ca90195	0.020630637
20	0x3d56fe87	0.05248883
21	0x3d3149d6	0.043283306
22	0xbcebda5b	-0.028790643
23	0x3bbd9b9e	0.0057863733
24	0x3d11f913	0.035637926
25	0xbce22956	-0.027607601
26	0xbd3c7271	-0.046007577
27	0xbd00cde1	-0.03144634
28	0x3d99124a	0.074741915
29	0x3dcf9fc4	0.10137895
30	0xbcd8058b	-0.02636983
31	0x3dc18635	0.09449426
32	0x3da3085d	0.079605795
33	0xbc40b004	-0.011760715
34	0x3c9347d8	0.017978594
35	0x3b5987cf	0.003319252
36	0x3c0c4e04	0.008563522
37	0x3c5d7887	0.0135175055
38	0x3cec6905	0.028858671
39	0xbc63145c	-0.0138598345
40	0xbd6b96d1	-0.057516877
41	0xbcc3491f	-0.023838578
42	0xbb5ef5b3	-0.003402096
43	0xbc25ff15	-0.010131617
44	0xbc9c4135	-0.019074062
45	0xbc301761	-0.010747761
46	0xbcbde7cd	-0.02318182
47	0xbbd4621b	-0.0064814216
48	0xbd3370c5	-0.043808717
49	0xbd5524fa	-0.052037217
50	0xbba6f04d	-0.005094564
51	0x3c2e2865	0.010629748
52	0x3c43a2f0	0.011940703
53	0x3d7a0ae1	0.06104553
54	0x3d907dc1	0.07055236
55	0x3d87baa0	0.06627393
56	0x3d7f5396	0.062335573
57	0x3d88971a	0.06669445
58	0x3cb3dd57	0.021956129
59	0xbc67e6a2	-0.014154108
60	0xbcbe3796	-0.023219865
61	0xbdbb72bf	-0.091527455
62	0xbdefef8e	-0.11715613
63	0xbc9fa82e	-0.019489374
64	0xbd9dff2f	-0.07714688
65	0xbd835905	-0.064134635
66	0xb9170e02	-0.000144057
67	0xbcc591f7	-0.024117453
68	0x3c0afc7b	0.008483048
69	0xbb13db15	-0.0022561003
70	0x3d1cd1e8	0.03828612
71	0x3d9139c9	0.070911
72	0x3cee3ec4	0.029082663
73	0xbcc6d390	-0.024270803
74	0xbca73d7a	-0.020415056
75	0xbc9fe6d8	-0.019519255
76	0xbd81ea0c	-0.06343469
77	0xbd0b9803	-0.034080517
78	0x3bd8686a	0.006604244
79	0x3d29c8e7	0.04145136
80	0x3da1098f	0.07863151
81	0xbd6eaa9e	-0.058268182
82	0xbd7bab93	-0.061442923
83	0xbd0e20a7	-0.03469911
84	0xbd131557	-0.035909023
85	0xbd9aaeaa	-0.07552846
86	0xbd3bda53	-0.045862507
87	0x3d99bb94	0.07506481
88	0x3daa3b33	0.083120726
89	0x3de9f77c	0.11424157
90	0x3cb4abda	0.022054601
91	0x3b1ee701	0.0024246576
92	0x3cd25841	0.025676848
93	0x3caeba0c	0.021328948
94	0x3c798345	0.015229051
95	0xbc8a5856	-0.016887825
96	0xbc48f6b2	-0.012265848
97	0x3d035d8b	0.03207163
98	0x3d502005	0.050811786
99	0x3d0d6cfa	0.034527756
100	0x3d65c5cf	0.056096848
101	0xbc94c3d3	-0.018159783
102	0x3d20aada	0.039225437
103	0x3d007485	0.03136112
104	0xbb90bade	-0.0044168076
105	0xbc1f1a40	-0.009710848
106	0xbd361961	-0.044457797
107	0xbdaa2cbc	-0.08309314
108	0xbb53f59e	-0.0032342444
109	0x3db177c8	0.086654246
110	0x3e00425b	0.12525313
111	0xbbd5f560	-0.006529495
112	0x3b981958	0.004641693
113	0x3d9856da	0.074384406
114	0xbcb59686	-0.022166502
115	0x3b8b9e3c	0.0042608064
116	0x3d150da2	0.036389954
117	0x3d44f7c5	0.048087854
118	0xbd03885b	-0.03211246
119	0x3be28bdc	0.006913645
120	0xbc28c90a	-0.010301838
121	0xbd3cfd68	-0.046140105
122	0xbb8280bb	-0.003982631
123	0xbc699b65	-0.01425824
124	0x3c7c0ff1	0.01538466
125	0x3b8e4f29	0.0043429327
126	0x3dce3d64	0.10070303
127	0xbc9650c1	-0.018349053
128	0x3cfb0c7d	0.030645603
129	0x3d91486e	0.07093893
130	0xbd4adb58	-0.04952559
131	0xbc5b06e8	-0.013368346
132	0x3cbc58b3	0.022991514
133	0xbd4e5faa	-0.0503842
134	0xbd8bbd30	-0.06823194
135	0x3c994691	0.018710406
136	0x3e062b09	0.13102354
137	0x3ddc5d82	0.10760023
138	0x3b46f298	0.0030357
139	0x3dc4a867	0.09602433
140	0x3d4845e5	0.04889478
141	0xbcc8c01e	-0.024505671
142	0x3c9e4bfc	0.019323342
143	0xbd03aebf	-0.032149073
144	0x3d5d5b17	0.05404195
145	0x3c187aa5	0.0093065845
146	0x3ad74884	0.001642481
147	0x3d61dffd	0.055145252
148	0xbc618eb6	-0.013766935
149	0xbca34486	-0.019930135
150	0x3c6e9ac7	0.014563269
151	0xbcc86ed6	-0.024466913
152	0xbd2c7076	-0.04209944
153	0x3d7e7a21	0.06212819
154	0x3d5c21bc	0.05374311
155	0xbc7b79f6	-0.015348902
156	0x3d089f41	0.033355
157	0xbce704ce	-0.028200533
158	0xbdcb8c0a	-0.0993882
159	0x3cdf2ab4	0.027242042
160	0xbcd81423	-0.02637679
161	0xbd789633	-0.060690116
162	0x3d69bae3	0.057062995
163	0x3d81c0df	0.06335615
164	0x3d68680e	0.05673986
165	0x3d4b3a32	0.049616046
166	0x3d97dcc2	0.07415153
167	0x3cddde11	0.027083429
168	0x3c55d99b	0.0130523695
169	0x3c4511b7	0.012028149
170	0xbc50e1e6	-0.012749171
171	0xba971dcc	-0.0011529266
172	0xbd12434f	-0.03570872
173	0x3ccf685e	0.02531832
174	0x3cc7fed1	0.024413498
175	0xbbcca1c3	-0.0062448694
176	0xbb2a703a	-0.0026006834
177	0xbc3fae71	-0.011699305
178	0xbcb71dc2	-0.022353057
179	0x3d323392	0.043506213
180	0x3d6790e8	0.056534678
181	0x3cc19ec2	0.023635272
182	0x3d0164b3	0.031590175
183	0x3d688ccd	0.056774903
184	0x3ca2516b	0.019814214
185	0x3c52e647	0.012872285
186	0x3d35029a	0.044191934
187	0x3d17fc96	0.03710612
188	0x3be87636	0.00709417
189	0x3cafb833	0.021450138
190	0x3d36d62d	0.044637848
191	0xbca2eb64	-0.019887634
192	0x3bf791c0	0.0075552166
193	0x3ce1d9f9	0.027569758
194	0xbc59efc6	-0.013301795
195	0x3b0bfedf	0.0021361632
196	0x3cffa5ee	0.031207051
197	0x3ca1ab6c	0.01973506
198	0x3c367987	0.011137373
199	0x3d438358	0.04773268
200	0x3d80dac8	0.06291729
201	0xba84cb0b	-0.0010131312
202	0x3db38e40	0.087673664
203	0x3d047465	0.032337565
204	0xbd0b0294	-0.033938006
205	0xbc465463	-0.01210508
206	0x3a92aa9a	0.0011189759
207	0x3b94beb2	0.004539334
208	0x3ca9ab28	0.020711496
209	0x3c16a625	0.009194885
210	0x3a8a9fba	0.0010576167
211	0x3cc423a1	0.02394277
212	0x3a956351	0.0011397396
213	0x38aeb1e7	8.3301034e-05
214	0x3bf016fd	0.007326959
215	0x3ccd6d7a	0.025076617
216	0x3d3a726a	0.04551927
217	0x3d6cfc52	0.05785782
218	0xbc538998	-0.012911223
219	0x3c63993a	0.0138915125
220	0x3d430825	0.04761519
221	0xbb29032b	-0.0025789242
222	0x3d76c837	0.060249534
223	0x3d545c55	0.051845867
224	0x3ca4f5e0	0.020136774
225	0xbcb53451	-0.022119673
226	0xbc9efbb7	-0.019407136
227	0xbcf8d769	-0.030376153
228	0xbaf1fc35	-0.0018462004
229	0x3c1bc727	0.009507931
230	0x3b1ad4f8	0.0023625474
231	0xbac5c1f4	-0.001508771
232	0x3ca41b95	0.020032683
233	0x3cf93997	0.030422969
234	0x3d3233ec	0.043506548
235	0x3d4f261f	0.050573464
236	0x3c4ccc8a	0.012499938
237	0x3c9e4e66	0.019324493
238	0x3ceee112	0.029160056
239	0xbc3154dc	-0.010823455
240	0x3d455ab2	0.048182197
241	0x3d0f26fa	0.03494928
242	0x3d08e7a4	0.033424035
243	0x3cec9ef7	0.028884394
244	0x3d13b0bc	0.03605722
245	0x3d86ff38	0.06591648
246	0xbcdd6827	-0.027027203
247	0x3cf2aafd	0.02962255
248	0x3d1de9a8	0.03855291
249	0x3b8d63df	0.004314884
250	0x3d1d9c5a	0.038479187
251	0x3ccbccc9	0.024877923
252	0x3c1ba386	0.009499436
253	0x3baa8aa2	0.0052045146
254	0xbb0172c2	-0.001975224
255	0x3be5cfc4	0.007013293

83 f4 [32]
0	0xbfc8ff99	-1.5703002
1	0xbfb7bef5	-1.435515
2	0x400113d4	2.0168352
3	0xbe1137de	-0.14181468
4	0x3ec030f0	0.37537336
5	0xbfd70420	-1.6798134
6	0xc026b403	-2.604737
7	0x404d257c	3.2054129
8	0xbc90a748	-0.01765789
9	0x406df7a0	3.7182388
10	0xbec134d8	-0.3773563
11	0xbf8fd506	-1.1236885
12	0xbff2ddfb	-1.8973993
13	0xbfbbfc5b	-1.4686388
14	0xbfde401e	-1.7363317
15	0xc0069173	-2.1026275
16	0xbfceda1e	-1.6160314
17	0xc034a6d4	-2.8226824
18	0xc01b5c11	-2.4274943
19	0x3fd1ccc4	1.6390615
20	0x3e1ba5a8	0.15199912
21	0xc024a4ce	-2.5725589
22	0xbf6b0274	-0.9180062
23	0xbfebffad	-1.8437401
24	0x3f22f8b2	0.6366073
25	0xc0281294	-2.626134
26	0x3e0fcfb2	0.14044073
27	0xbf2260ba	-0.63428843
28	0xc00e5b58	-2.2243252
29	0x3f0e0cea	0.55488455
30	0xbfe06664	-1.7531247
31	0xbf6d9cac	-0.9281719

85 f4 [32, 32, 3, 3]
0	0x3bec0251	0.0072024246
1	0x3cdfd518	0.02732329
2	0x3c15abaa	0.009135166
3	0x3be840ac	0.0070877876
4	0x3d2f5288	0.042803317
5	0x3cb803e1	0.022462787
6	0x3c9ac138	0.018890962
7	0x3d840bf1	0.0644759
8	0x3d787db0	0.06066674
9	0xbc9e5c24	-0.019331045
10	0x3b9eb6f3	0.0048435866
11	0x3c656564	0.014001224
12	0xbcc6c124	-0.024262019
13	0xbc796fbb	-0.0152243925
14	0xbc90be1c	-0.017668776
15	0x3c85a957	0.0163161
16	0xbaf300dc	-0.0018539685
17	0xbacb611b	-0.0015516611
18	0xbb704eb4	-0.0036668004
19	0x3c4baa04	0.012430672
20	0x3bc95bcd	0.0061449767
21	0xbbe3555b	-0.0069376654
22	0x3cb8acc6	0.022543322
23	0x3a5ec3c5	0.00084978
24	0xbcad57a2	-0.02115995
25	0xbcbdaa21	-0.023152413
26	0xbcdd0b26	-0.026982855
27	0x3ba0731e	0.0048965355
28	0x3cd70721	0.026248517
29	0x3d229cb2	0.039700218
30	0xbcae2a05	-0.02126027
31	0x3c3cb28a	0.011517176
32	0x3d6fe732	0.058570094
33	0xbca1c0e1	-0.019745292
34	0x3c176508	0.009240396
35	0x3cf7da67	0.03025551
36	0xbcba3965	-0.022732446
37	0x3a8c42ee	0.0010701099
38	0xbc1c622a	-0.0095448885
39	0xbcef647e	-0.029222723
40	0xbbd1d69c	-0.0064037573
41	0xbc0ff112	-0.008785503
42	0xbae7e54e	-0.001769224
43	0x3cb32ce2	0.021871988
44	0x3cb4c46c	0.022066317
45	0x3ca1c971	0.019749375
46	0x3cab83be	0.020936843
47	0x3cc25df3	0.02372644
48	0xbc93f42a	-0.018060762
49	0x3c40aeb9	0.011760407
50	0x3cfcc9e1	0.030857982
51	0x3c0d026f	0.008606537
52	0x3c73c9f7	0.014879695
53	0x3d5ef0d0	0.054428875
54	0x3b628716	0.003456538
55	0xbbdb1f72	-0.006687098
56	0x3c82451d	0.015902096
57	0xbcdddf9c	-0.027084164
58	0x3b689204	0.0035487423
59	0x3cdc1af5	0.026868323
60	0x3b412968	0.0029474143
61	0x3c46c5d2	0.012132125
62	0x3d4e9b56	0.05044111
63	0xbd36535c	-0.04451309
64	0xbc8b96a1	-0.017039599
65	0xbcfff31b	-0.031243851
66	0x3c10a60d	0.008828652
67	0x3c85fae8	0.016354993
68	0x3c39d0af	0.011341258
69	0xbc017a01	-0.007902623
70	0xba9fef67	-0.0012202085
71	0xbc9ba8cc	-0.019001387
72	0x3c9903f1	0.018678637
73	0x3c0a6c52	0.008448677
74	0xbb8da424	-0.0043225456
75	0xbc6f0e1d	-0.014590767
76	0xbc5ebd11	-0.013594882
77	0xbb2dec2d	-0.0026538477
78	0xbc1002a2	-0.00878969
79	0x3c454e27	0.012042559
80	0x3d0cf78c	0.034415767
81	0xbd3c9702	-0.04604245
82	0xbccdbd90	-0.025114805
83	0xbd2ef7f9	-0.042716954
84	0x3c703618	0.014661334
85	0x3c1b444d	0.009476733
86	0x3be0a7d1	0.006855943
87	0xbbe92312	-0.0071147764
88	0xbc345f67	-0.011009074
89	0xbc98bd11	-0.018644841
90	0xbc15751b	-0.009122158
91	0x3ca95b0c	0.020673297
92	0x3ccf7489	0.025324123
93	0xbc8b7def	-0.017027823
94	0xbc4aec88	-0.012385495
95	0x3c563815	0.013074894
96	0xbc3993ba	-0.011326725
97	0xbb795936	-0.0038047559
98	0x3bfa033c	0.00762978
99	0x3bcb8cae	0.0062118387
100	0x3cbafe51	0.022826346
101	0x3c815e10	0.015791923
102	0x3c8a881a	0.016910601
103	0x3cbff725	0.023433277
104	0x3bbfd273	0.005853945
105	0x3d02a27f	0.03189325
106	0x3ce40b1b	0.027837327
107	0x3cc4ac04	0.024007805
108	0x3c9abb56	0.018888157
109	0x3c9d16cf	0.019175915
110	0xbc7c7ba7	-0.01541034
111	0x3c3de38d	0.011589897
112	0xba101b68	-0.0005497248
113	0xbc35eedb	-0.011104311
114	0x3cb54885	0.022129307
115	0x3ce4cbd5	0.027929226
116	0x3cbdd623	0.023173397
117	0x3ccdb844	0.025112279
118	0x3a048cac	0.0005056362
119	0x3cc75547	0.024332656
120	0x3c13d3e8	0.00902269
121	0xbcfe7693	-0.0310624
122	0x3bbacbda	0.0057005705
123	0x3c843afb	0.016141405
124	0xbd04a6a0	-0.03238547
125	0xbba94a5d	-0.0051663355
126	0xbc9b5fcf	-0.018966584
127	0x3c6e809c	0.01455703
128	0x3c33ab16	0.010966083
129	0xbcc86202	-0.024460796
130	0xbabc9aa7	-0.0014389352
131	0x3bc0021a	0.0058596255
132	0x3b63a9ad	0.0034738586
133	0x3cb60850	0.02222076
134	0x3c8d6644	0.017260678
135	0x3d063543	0.032765638
136	0x3bc3f55e	0.005980178
137	0xbbea5e7f	-0.007152378
138	0x3ba321ff	0.004978418
139	0xbc823dd2	-0.015898619
140	0xbc00a172	-0.007850992
141	0x3d078eb5	0.03309508
142	0xbbdc009b	-0.0067139394
143	0x3caae9ee	0.0208635
144	0x3ccd4298	0.025056168
145	0x3c7a06c1	0.015260399
146	0x3c0c6116	0.008568069
147	0x3c4abc78	0.012374036
148	0x3c6a1b3c	0.01428872
149	0xbc037c28	-0.008025207
150	0xbb908db3	-0.004411423
151	0x3b920483	0.0044561042
152	0xbae3bb10	-0.0017374475
153	0xbc886234	-0.01664839
154	0xbce9afc4	-0.028526194
155	0x3cd19ba5	0.025586912
156	0xbd371366	-0.044696234
157	0xbd1001da	-0.035158016
158	0x3ccf34aa	0.025293667
159	0xbc61690c	-0.013757955
160	0xba7779ac	-0.0009440433
161	0x3d82746f	0.06369864
162	0x3d2285bd	0.039678324
163	0x3d152ea5	0.036421437
164	0x3d6c46b5	0.05768462
165	0x3b4d7321	0.003134914
166	0x3ceb6a91	0.028737338
167	0x3cdc3a0b	0.026883146
168	0x3caddbcd	0.021222973
169	0x3c2af002	0.010433199
170	0x3d16a5fd	0.036779393
171	0xbd138421	-0.03601468
172	0xbbf46d23	-0.007459299
173	0x3beb6fe5	0.0071849697
174	0xbcac38b5	-0.021023134
175	0xbc4810ea	-0.012211064
176	0x3c3fb1c4	0.0117000975
177	0xbbcdc37c	-0.006279407
178	0xbc398f6f	-0.011325701
179	0x3be3288d	0.0069323243
180	0xbc21e3a7	-0.009880937
181	0x3a73ae30	0.00092956703
182	0xbba7483a	-0.0051050456
183	0xbb6f6894	-0.003653084
184	0x3badf9fb	0.005309341
185	0x3c5b9746	0.013402766
186	0xbb23357a	-0.00249037
187	0x39b0686c	0.00033647136
188	0x3cbb675a	0.02287643
189	0x3cb12ed4	0.021628775
190	0x3c4f501f	0.01265338
191	0x3ca5a734	0.02022133
192	0x3ceae57c	0.02867388
193	0x3ac943b0	0.0015355255
194	0x3c2e134c	0.010624718
195	0x3d10ee68	0.035383612
196	0x3cb9f825	0.022701332
197	0x3cbc1527	0.022959305
198	0x3bf4a258	0.007465642
199	0x3d07c2d8	0.0331448
200	0xbbdd8fcc	-0.0067615267
201	0xbc4bc505	-0.01243711
202	0xb81711f2	-3.601792e-05
203	0xbb0c09d5	-0.0021368165
204	0xbb7c0d9c	-0.003846026
205	0x3c7f693b	0.015589054
206	0x3c9bf635	0.0190383
207	0xbbc0c9b9	-0.005883422
208	0xbc84eb11	-0.01622537
209	0xbc00b2ff	-0.007855176
210	0xbc9b2e8c	-0.018943094
211	0xbc3e6551	-0.011620835
212	0xbc443f49	-0.011977979
213	0xbbc9f590	-0.0061633065
214	0x3c2c7b43	0.010527435
215	0x3d255b24	0.04037012
216	0xbcde8e8c	-0.027167581
217	0x3bd36480	0.0064511895
218	0x3a95610d	0.0011396721
219	0xbcfad1fc	-0.030617706
220	0xbb3f803d	-0.0029220723
221	0xbb9af0c9	-0.004728411
222	0xbc63e780	-0.013910174
223	0xbbdd7ac1	-0.006759018
224	0xbc0c992e	-0.008581443
225	0xbb152675	-0.0022758518
226	0xbb3b7061	-0.0028600919
227	0xbb8c83b2	-0.0042881602
228	0xbd18a387	-0.037265327
229	0xbcf2003d	-0.02954113
230	0xbc2d8b74	-0.01059233
231	0xbcb767e8	-0.022388414
232	0x3852f978	5.0300237e-05
233	0x3cbf3b50	0.023343712
234	0xbc08de9f	-0.008353858
235	0xbc801f19	-0.015639829
236	0xbcc905d6	-0.024538916
237	0xbba620da	-0.005069834
238	0xbbfd07f6	-0.0077218963
239	0xbd0f5b9a	-0.034999467
240	0x3bc296aa	0.0059383707
241	0xbc312e5a	-0.010814274
242	0xbcc07260	-0.023492038
243	0xbb9b0ad3	-0.004731515
244	0x3ca3e6e7	0.020007564
245	0x3cefa2d2	0.029252443
246	0xbd09d330	-0.03364867
247	0x3b08b46d	0.0020859495
248	0x3cb32edf	0.021872936
249	0xbc98a141	-0.01863158
250	0x3bfcb302	0.007711769
251	0x3c2cfb61	0.01055798
252	0x3c1ad28d	0.009449613
253	0x3d232de0	0.03983867
254	0x3d5be70e	0.053687148
255	0xbbfc1052	-0.007692375

86 f4 [32]
0	0xbf20d0c3	-0.62818545
1	0x3f945edc	1.1591449
2	0xbea74e3e	-0.32676882
3	0xbec54a20	-0.38533115
4	0x3eba0966	0.36335295
5	0x3fa0fc76	1.2577045
6	0x3f6aff57	0.9179587
7	0x3f249593	0.6429073
8	0xbf87811b	-1.0586275
9	0x3c91abac	0.017782055
10	0xbf82eafa	-1.0227959
11	0xbf8de8a6	-1.1086624
12	0x3ecd8619	0.4014137
13	0x3d94aa36	0.07259028
14	0x3dff82d8	0.12476128
15	0xbf7c8c74	-0.98651814
16	0xbd6a1111	-0.057145182
17	0x3f7c89b3	0.9864761
18	0xbf2a8c27	-0.66620106
19	0x3f965fc0	1.174797
20	0x3e4c9db9	0.19982041
21	0xbe445d7f	-0.19176291
22	0xbef7c18e	-0.48389858
23	0xbed8c132	-0.42334896
24	0x3f3d3020	0.7390156
25	0xbf43e65a	-0.76523364
26	0xbf07e6de	-0.5308665
27	0xbf88ea9a	-1.0696595
28	0x3d61b140	0.05510068
29	0xbf4bc331	-0.79594713
30	0xbf4448cc	-0.7667358
31	0xbf0beb50	-0.54655933

88 f4 [32, 16, 1, 1]
0	0xbe804043	-0.25049028
1	0xbe95aa9f	-0.29231736
2	0x3f097298	0.5369048
3	0xbca2f94e	-0.019894268
4	0x3d9d3bf2	0.07677449
5	0xbe05dac5	-0.13071735
6	0x3eab5400	0.33462524
7	0x3e9a5112	0.30139977
8	0xbcfaa9a1	-0.030598463
9	0xbe804f9c	-0.25060737
10	0x3ed4aaec	0.41536653
11	0x3ede82df	0.43459222
12	0xbddcf184	-0.10788253
13	0x3d60b423	0.05485929
14	0x3eb2ce7f	0.3492317
15	0xbd3dddf4	-0.04635425
16	0x3efb7102	0.49109656
17	0xbd7e2dc8	-0.06205538
18	0x3c7844a7	0.015153087
19	0x3f10d67c	0.5657728
20	0x3d020ebc	0.031752333
21	0xbe35ef3d	-0.17767043
22	0xbdd61b27	-0.10454398
23	0xbe6c7172	-0.23090151
24	0x3ed2672e	0.41094345
25	0x3ef141ce	0.47120517
26	0x3e80939e	0.25112623
27	0x3ea286b6	0.317434
28	0x3bb30747	0.005463514
29	0xbeb6d1ee	-0.3570704
30	0x3e91a235	0.28444067
31	0x3e5c79ed	0.21530886
32	0xbdc41b4b	-0.09575518
33	0xbe5060d7	-0.20349441
34	0x3ebe406b	0.37158522
35	0xbbe0beab	-0.006858667
36	0x3e59f5b7	0.21285139
37	0xbdcd5067	-0.10025101
38	0x3eb80c19	0.3594673
39	0xbe777a8d	-0.24167843
40	0x3d25b9a0	0.04046023
41	0xbe96dde7	-0.29466173
42	0x3dcafdab	0.099116646
43	0x3d3c70cf	0.04600602
44	0xbe5e9372	-0.21735933
45	0xbdc8b275	-0.09799663
46	0x3da38735	0.07984773
47	0xbe551a78	-0.20810878
48	0xbf331989	-0.6996084
49	0xbe8448c1	-0.25836757
50	0x3ca26fc3	0.019828683
51	0xbe996fd0	-0.2996812
52	0x3ee7f421	0.45303443
53	0xbdd466b3	-0.10371151
54	0xbe25503a	-0.16143885
55	0x3e7a690c	0.24454135
56	0xbe828d27	-0.25498316
57	0xbe2249ac	-0.15848416
58	0x3e89607f	0.26831433
59	0xbe9933f5	-0.29922453
60	0xbc5260e1	-0.012840481
61	0x3e8ad62b	0.27116522
62	0xbeac8fdc	-0.33703506
63	0x3cf8006f	0.030273644
64	0x3dab75bb	0.08372065
65	0xbd77c13f	-0.06048703
66	0xbc00b9ac	-0.007856768
67	0x3d74ac29	0.059734497
68	0xbec6d41c	-0.38833702
69	0xbdb887ee	-0.090103015
70	0x3e8d2f09	0.27574947
71	0x3e518a71	0.20462967
72	0xbeada30c	-0.33913457
73	0x3e83decb	0.25755915
74	0xbee04e5e	-0.4380979
75	0xbd008ea0	-0.031386018
76	0x3e351b8b	0.17686288
77	0xbedd33d2	-0.43203598
78	0xbe99ec0e	-0.30062908
79	0xbe28b439	-0.16475
80	0x3cee4601	0.029086115
81	0xbcca9842	-0.024730805
82	0x3e84d6c4	0.25945103
83	0x3e0086eb	0.12551467
84	0xbeb103bc	-0.34573162
85	0x3e038063	0.12841944
86	0x3f38799e	0.72060573
87	0xbd5800fb	-0.05273531
88	0x3e88ccc7	0.26718733
89	0xbf2174fa	-0.6306912
90	0x3edebfed	0.43505803
91	0xbd5f2e3c	-0.054487452
92	0x3f1573bf	0.5837974
93	0x3f21d59a	0.63216555
94	0x3ec03173	0.37537727
95	0x3f2115f0	0.629241
96	0x3e0439d3	0.12912683
97	0xbe1960ee	-0.14978382
98	0x3ceb4de0	0.028723657
99	0xbe0817ad	-0.13290282
100	0xbe065741	-0.13119222
101	0xbe42e4f6	-0.19032654
102	0xbd582222	-0.052766927
103	0xbeafc507	-0.34330007
104	0xbf179d1c	-0.59224105
105	0xbe7bf341	-0.24604513
106	0xbe844296	-0.2583205
107	0xbdff7c8c	-0.12474927
108	0xbdd141bd	-0.10217617
109	0xbe98034c	-0.29690015
110	0xbca120cd	-0.019668961
111	0x3dc303a2	0.09522177
112	0xbe3edbad	-0.18638487
113	0x3eaf7a39	0.34272936
114	0x3eda1f63	0.4260207
115	0xbe0c36a9	-0.13692726
116	0x3e94ee94	0.2908827
117	0x3e636955	0.2220815
118	0x3ecdf0b1	0.40222695
119	0x3e78c957	0.24295555
120	0x3e0a70d0	0.13519597
121	0xbdde286a	-0.10847552
122	0xbcfb5b71	-0.030683251
123	0x3e32756e	0.17427608
124	0x3e293989	0.16525854
125	0x3edf0d7a	0.4356497
126	0x3e858963	0.2608138
127	0x3e7bbcfb	0.24583809
128	0x3e6f5b54	0.23374683
129	0xbd6f3a4c	-0.058405206
130	0x3e99baeb	0.3002542
131	0x3ed6eacc	0.4197601
132	0xbe889acd	-0.26680604
133	0xbdde81c9	-0.10864598
134	0x3ef11473	0.47085914
135	0xbe40babc	-0.18821234
136	0xbe6c2a58	-0.23063028
137	0x3deff825	0.11717252
138	0x3e2407a9	0.16018547
139	0x3e880e95	0.26573625
140	0x3e2d2e96	0.16912302
141	0xbe0e3fa6	-0.13891467
142	0xbe42cdf0	-0.19023871
143	0x3dbf00fc	0.0932636
144	0x3eb082d6	0.3447482
145	0x3e34d10d	0.17657872
146	0xbe9690db	-0.2940739
147	0x3ec833df	0.39102075
148	0x3eaeabe6	0.34115523
149	0xbe30fa88	-0.1728307
150	0xbe1d4159	-0.1535696
151	0xbe9e3c46	-0.3090536
152	0x3e73b65a	0.2380003
153	0x3d7a07b6	0.06104251
154	0x3c5aa0db	0.013344015
155	0x3d6114fc	0.054951653
156	0x3eb1b5c9	0.34709004
157	0x3eaa4f6c	0.3326372
158	0x3b62b27b	0.0034591246
159	0x3e32dff7	0.17468248
160	0x3e2d0f63	0.16900401
161	0x3d6283c5	0.055301446
162	0x3d2fbf5d	0.042907108
163	0x3ef3b2fa	0.47597486
164	0xbe7c08c3	-0.24612717
165	0x3d96db23	0.07366016
166	0xbe835b1a	-0.25655442
167	0x3e3f3bce	0.18675157
168	0x3e47304b	0.19452016
169	0x3db9cad3	0.09071889
170	0xbdaa24ad	-0.083077766
171	0x3eb0f257	0.3455989
172	0x3cb3cca1	0.02194816
173	0xbe071b9d	-0.13194127
174	0xbe6495ec	-0.22322816
175	0x3f008ae2	0.5021192
176	0x3e06d4f7	0.13167177
177	0x3c4de613	0.012567061
178	0x3bbf13c3	0.005831213
179	0x3ec4a844	0.38409626
180	0xbd5d74a1	-0.054066304
181	0xbdbfa397	-0.09357374
182	0x3e989815	0.2980353
183	0xbedd3d2c	-0.43210733
184	0x3a6a440b	0.0008936531
185	0xbc93d6ff	-0.018046854
186	0xbd4e4034	-0.050354198
187	0x3d5f3b2a	0.054499783
188	0xbcfcaff8	-0.030845627
189	0xbe6f619c	-0.23377079
190	0xbe1bb4f2	-0.15205744
191	0x3ee7123e	0.45131105
192	0x3dd93a13	0.1060678
193	0xbf18c63d	-0.5967749
194	0x3e5f2d87	0.21794711
195	0x3d5b0b2a	0.053477444
196	0xbe80d446	-0.25161952
197	0x3b359378	0.0027706306
198	0x3ef2c405	0.47415176
199	0x3d80b6b9	0.062848516
200	0x3e70fd61	0.23534156
201	0xbd87b7fb	-0.06626888
202	0x3ebb6f5d	0.366084
203	0x3ec4399c	0.38325202
204	0x3f037cc0	0.5136223
205	0x3eaf84df	0.3428106
206	0xbe701df8	-0.23448932
207	0x3eff8326	0.49904746
208	0x3ece4acf	0.4029145
209	0x3e6af8c5	0.2294646
210	0x3e0c4588	0.13698399
211	0x3ed98d21	0.42490485
212	0x3e3c9a47	0.18418227
213	0xbe0db00f	-0.13836692
214	0x3e79d8d4	0.2439912
215	0xbee7f9d7	-0.453078
216	0x3e2186d5	0.1577409
217	0xbf674324	-0.90336823
218	0x3d9b7e1c	0.07592413
219	0xbdb87fc3	-0.090087436
220	0x3d93f89d	0.072251536
221	0x3d998d8c	0.07497701
222	0x3e4b4a42	0.19852546
223	0x3f21c8af	0.63196844
224	0xbefc4b15	-0.49276033
225	0xbec5daeb	-0.38643584
226	0xbd7f2a78	-0.06229636
227	0xbe53b7fc	-0.20675653
228	0x3e9a214e	0.30103534
229	0x3de7a636	0.11310999
230	0xbe9e0572	-0.3086353
231	0x3db59ab6	0.088673994
232	0x3d6d7ed0	0.057982266
233	0x3b83d492	0.004023143
234	0x3d16bf33	0.036803436
235	0xbec6186e	-0.38690513
236	0xbe3ab3b8	-0.1823262
237	0x3cdc2a40	0.026875615
238	0xbe96b94a	-0.2943824
239	0xbda12c32	-0.07869758
240	0x3e5c0a57	0.2148832
241	0xbe851862	-0.25995165
242	0xbe912ba9	-0.28353623
243	0x3e433bd7	0.19065796
244	0xbe679568	-0.22615588
245	0x3ec811b3	0.39076003
246	0x3a71423a	0.0009203289
247	0xbd3d95fa	-0.046285607
248	0xbc2094ab	-0.00980107
249	0x3ea58cf4	0.323341
250	0xbe8b53e5	-0.27212444
251	0xbe9eab9c	-0.30990303
252	0x3e320eef	0.17388509
253	0xbe90ce6c	-0.28282487
254	0xbecfec26	-0.40609854
255	0xbd4f8222	-0.050661214

89 f4 [32]
0	0xbf7dca7a	-0.9913708
1	0xc001ecf5	-2.0300877
2	0x3ee257ee	0.4420771
3	0x3fe691fd	1.8013302
4	0x3e5b8a8c	0.2143957
5	0xc00e9a16	-2.2281547
6	0x3fab5088	1.3383951
7	0xc011185c	-2.2671118
8	0xbfcdb9ce	-1.6072328
9	0xbf8a1f30	-1.0790768
10	0xbfcb93f2	-1.5904524
11	0xbf570aba	-0.8400074
12	0xbfdd4f85	-1.7289892
13	0xbf4e762a	-0.80649054
14	0x3ff86762	1.940655
15	0x3ea87c7a	0.32907468
16	0xbed49b3b	-0.4152468
17	0x401443cc	2.316638
18	0xbf11a99b	-0.5689942
19	0x4015ea4b	2.342425
20	0x3f1096e7	0.5648026
21	0x402c3320	2.6906204
22	0xbfd30f19	-1.6488982
23	0xc019f6f5	-2.405698
24	0x3fdbbc45	1.716683
25	0xbee0409b	-0.4379929
26	0x3f158771	0.5840979
27	0x3f96e908	1.1789865
28	0xc01569e4	-2.334588
29	0xbf03f02c	-0.5153835
30	0xbf51de86	-0.8198017
31	0x3f1410c2	0.5783807

91 f4 [64, 32, 3, 3]
0	0x3cc89448	0.024484769
1	0x3d143105	0.03617956
2	0x390432f7	0.00012607487
3	0x3bab42d8	0.0052264743
4	0x3c1eb690	0.009687081
5	0xbd0ed2d8	-0.034869045
6	0xbc18d7c5	-0.009328787
7	0xbcad7c7e	-0.021177527
8	0xbcc5dcf4	-0.02415321
9	0x3d874feb	0.0660704
10	0x3cc3c466	0.023897361
11	0x3d611f96	0.054961763
12	0xbb2a6e67	-0.0026005746
13	0xbcb59287	-0.022164596
14	0xbcda1464	-0.026621051
15	0x3b1fa107	0.0024357454
16	0xbb46542e	-0.0030262577
17	0x3aba4139	0.0014210112
18	0xbc4b8f9a	-0.012424374
19	0x3c11e6ac	0.008905094
20	0xbc882d9e	-0.016623314
21	0x3c847d78	0.01617311
22	0x3c3deab0	0.011591598
23	0x3bba31aa	0.00568219
24	0x3999927e	0.0002929158
25	0xbc952357	-0.018205328
26	0xbd231535	-0.039815146
27	0xbc98b41a	-0.018640567
28	0xbd497b65	-0.049189944
29	0xbd2dd5c4	-0.04244019
30	0x3d8dd058	0.06924504
31	0x3d61f03f	0.055160757
32	0x3d3ddc57	0.04635271
33	0x3dbb8f17	0.091581516
34	0x3dbd1bb8	0.092338026
35	0x3d798eec	0.060927317
36	0x3cc74b7e	0.02432799
37	0x3d1d923a	0.03846953
38	0x3d1b50a9	0.03791872
39	0x3c4618e4	0.012090895
40	0x3d0e2052	0.03469879
41	0xbc12b4db	-0.008954252
42	0x3d35928e	0.04432922
43	0xba638541	-0.0008679219
44	0x3afd24c8	0.001931333
45	0xbb1a0ff8	-0.0023508053
46	0x3cf40bed	0.029790843
47	0xbc55128f	-0.013004913
48	0x3d5da6f7	0.05411431
49	0x3d6f2168	0.058381468
50	0x3d13a5b1	0.036046688
51	0x3cbce46f	0.023058144
52	0x3b9b6454	0.0047421847
53	0xbcb313c2	-0.021860007
54	0xbb37e427	-0.0028059573
55	0xbb7d4b2b	-0.003864954
56	0xbaed671d	-0.0018112395
57	0xbc6886e6	-0.014192319
58	0xbcf8493c	-0.030308358
59	0xbc822e30	-0.015891165
60	0x39f1d993	0.00046129207
61	0xbcae8f39	-0.021308528
62	0xbc9f6bdd	-0.019460613
63	0x3cdbcddd	0.026831562
64	0x3c44e2bd	0.012016949
65	0x3c4f6e3b	0.012660558
66	0xbb630ea1	-0.003464617
67	0x3af3911e	0.0018582677
68	0x3c06c878	0.008226506
69	0xbbb8d403	-0.005640508
70	0xbd3d9ddb	-0.04629312
71	0xbc5363f3	-0.012902248
72	0x3d2c6b0e	0.042094283
73	0x3d61f6e9	0.055167112
74	0x3c3d66c9	0.01156015
75	0xbc4e2412	-0.012581842
76	0x3c049620	0.008092433
77	0xbce07a42	-0.027402047
78	0xbc5f7254	-0.013638098
79	0xbd66aa57	-0.056314792
80	0xbcc940dd	-0.024567062
81	0x3ccb02ac	0.024781547
82	0xbcf3e5a0	-0.02977258
83	0x3d069989	0.032861266
84	0xbcb9a3ca	-0.022661109
85	0xbd84b074	-0.06478968
86	0xbcfe1737	-0.03101693
87	0xbc876c45	-0.01653112
88	0xbd089302	-0.033343323
89	0xbc990b8b	-0.018682262
90	0x3cc240fb	0.023712626
91	0x3c80a484	0.015703447
92	0x3d08a8d2	0.033364125
93	0xbd3acac3	-0.045603525
94	0xbd71388f	-0.05889183
95	0xbd0c8d42	-0.0343144
96	0xbcf2e663	-0.029650873
97	0xbd2eaf82	-0.042647846
98	0xbb3747d5	-0.00279664
99	0x3bb3a70d	0.0054825605
100	0x3c990345	0.018678317
101	0x3c9a3c0d	0.018827463
102	0xbc8faeeb	-0.017539462
103	0xbcc098d0	-0.023510367
104	0x3bd45fe2	0.0064811567
105	0xbcd3a806	-0.025836956
106	0xbd1046ac	-0.035223648
107	0xbc87f914	-0.016598262
108	0x3c83b48a	0.016077299
109	0x3d8240ad	0.06359992
110	0xbb9ff8e9	-0.0048819673
111	0x3c8d8859	0.01727693
112	0x3ca68c75	0.020330647
113	0x3c37cc35	0.01121812
114	0x3d773dfa	0.06036184
115	0xbc07e3bd	-0.008294043
116	0x3add0319	0.0016861885
117	0xbb151649	-0.0022748879
118	0xbcb73a53	-0.022366678
119	0xbce3e40c	-0.027818702
120	0x3cfabe51	0.030608328
121	0x3c079c86	0.008277064
122	0x3d148380	0.03625822
123	0xbbe85016	-0.007089625
124	0xbd9d2198	-0.07672423
125	0xbcd4bc9f	-0.025968848
126	0x3c88e78f	0.016711978
127	0xbd1184d5	-0.03552707
128	0xbd1f50e5	-0.038895506
129	0x3ba081f8	0.004898306
130	0xbc9d2571	-0.019182893
131	0xbb9c60b4	-0.00477227
132	0x3d25ae62	0.040449508
133	0x3d0f8e63	0.0350479
134	0x3ce7d479	0.028299557
135	0x3d996f4e	0.07491933
136	0x3d8758a5	0.066087045
137	0x3d6bbbb7	0.057552066
138	0xbbe38a04	-0.006943943
139	0xbc89bd60	-0.016813934
140	0xbb696739	-0.0035614504
141	0x3c3fa345	0.011696641
142	0xbb136d8b	-0.0022495713
143	0x3d09a570	0.03360504
144	0x3d872541	0.065989025
145	0x3d20d2ff	0.03926372
146	0x3d2e7d42	0.042599924
147	0xbc850083	-0.016235596
148	0xbb25e332	-0.002531242
149	0xbbbf04c1	-0.005829424
150	0x3d192c9c	0.03739606
151	0x3d1bfdf9	0.038084004
152	0x3d07ee87	0.03318646
153	0xbb59d2c6	-0.0033237203
154	0xbcaa2055	-0.02076737
155	0xbc24a8b5	-0.0100499885
156	0xbbd47177	-0.0064832526
157	0xbca8f0b5	-0.02062259
158	0xbc81efe0	-0.015861452
159	0xbd1d1cf8	-0.038357705
160	0xbd3ec841	-0.046577696
161	0xbd174254	-0.03692849
162	0x3d145d54	0.036221817
163	0x3c75900b	0.014987956
164	0x3cf7a0fe	0.030228134
165	0x3af0579b	0.0018336655
166	0xbc35a2f6	-0.011086216
167	0xbd4aa4fa	-0.04947374
168	0x3d0549d2	0.032541104
169	0x3c0096a2	0.007848414
170	0xba80a454	-0.0009814599
171	0xbd25beed	-0.040465284
172	0xbda61b3c	-0.08110663
173	0xbd24c9bb	-0.040231448
174	0xbd347ff7	-0.04406735
175	0xbd5d7aa2	-0.05407203
176	0xbd3f3f76	-0.04669138
177	0xbcfa2a8c	-0.030537866
178	0xbc9d2244	-0.019181378
179	0xbb6f563e	-0.003651991
180	0x3b1ea8f6	0.0024209595
181	0xbcac4d84	-0.021033056
182	0xbc9ed260	-0.019387424
183	0xbd49f951	-0.049310032
184	0xbd39e50c	-0.04538445
185	0xbd2f0099	-0.04272518
186	0x3ba736ef	0.005102984
187	0x3c1b42ad	0.009476346
188	0xbb682abd	-0.0035425865
189	0x3c80c0fe	0.015717026
190	0x3b9f68d6	0.0048647923
191	0x3cd2d8ab	0.025738081
192	0xbbbefba2	-0.005828337
193	0xbc200432	-0.009766625
194	0x3cd48b0e	0.025945213
195	0xbcbdafef	-0.02315518
196	0xbc83d0ee	-0.016090836
197	0xbcaa7f02	-0.020812515
198	0x3c90fa82	0.017697576
199	0x3d3dbfea	0.0463256
200	0xbb344320	-0.002750583
201	0x3c1ae8f8	0.009454958
202	0x3c338556	0.010957083
203	0xbcf71ba2	-0.030164544
204	0xbbe1c73e	-0.0068902066
205	0xbcef1467	-0.029184533
206	0xbd27e09c	-0.04098569
207	0x3d0105a1	0.03149951
208	0x3d9f15b9	0.07767815
209	0x3d38436e	0.04498618
210	0xbd43abe9	-0.04777137
211	0xbd373b13	-0.044734072
212	0xbd4ea960	-0.050454497
213	0xbcbdb904	-0.023159511
214	0xbd7ef163	-0.062241923
215	0xbc8f98cc	-0.017528914
216	0xba18d7e1	-0.00058305083
217	0xbc8abf09	-0.016936796
218	0xbca40754	-0.020023026
219	0x3b1c788c	0.0023875562
220	0xbabbee61	-0.001433801
221	0x3b7ea28b	0.0038854207
222	0xbc61e4ad	-0.013787431
223	0xbd5423ea	-0.051792063
224	0xbd213468	-0.03935662
225	0x3d127a2e	0.03576105
226	0x3c685cc5	0.014182274
227	0x3c36157a	0.011113519
228	0x3c20d663	0.009816739
229	0xbce44352	-0.027864132
230	0xbc98900a	-0.01862337
231	0x3d1326a8	0.035925537
232	0x3cf7e35f	0.030259786
233	0x3b0fcb13	0.002194111
234	0xbc77d32c	-0.015126031
235	0xbcd6a82a	-0.026203234
236	0xbccb4b91	-0.024816306
237	0x3d6cb4c1	0.057789568
238	0x3d81547b	0.063149415
239	0x3d635a2f	0.055505928
240	0x3d5e6436	0.054294787
241	0x3d063a57	0.03277048
242	0x3c95b044	0.018272527
243	0xbc3c6c78	-0.01150047
244	0xbb4f10ca	-0.00315957
245	0xbc277f56	-0.01022323
246	0xbc85a8b1	-0.01631579
247	0xbc3c7ad8	-0.011503898
248	0x3a71f1f6	0.00092294754
249	0xbc312a2d	-0.010813278
250	0xbd15facb	-0.036616128
251	0x3b5cc470	0.0033686422
252	0x3dae1fc9	0.08502156
253	0x3dc75c45	0.09734396
254	0x3d437622	0.047720082
255	0xbccc600a	-0.024948139

92 f4 [64]
0	0x3ec1e3ed	0.37869206
1	0x3e2ee7fc	0.17080683
2	0xbe8bafd3	-0.2728258
3	0x3f94a9d1	1.1614324
4	0xbec5e206	-0.38649005
5	0xbe0b1bf8	-0.13584888
6	0xbec29f0a	-0.38011962
7	0x3e1c965c	0.15291733
8	0x3f6fa8dd	0.9361704
9	0x3f9bc08e	1.2168138
10	0x3fa2114a	1.2661526
11	0x3e8a084a	0.2695945
12	0xbe8068d9	-0.25079992
13	0x3ecb0138	0.39649367
14	0xbee71976	-0.45136613
15	0x3f10ad1e	0.56514156
16	0x3f05d42c	0.52276874
17	0x3f04c695	0.5186551
18	0x3fd4f630	1.663763
19	0xbdf79223	-0.1208842
20	0xbd482e26	-0.048872136
21	0xbef5389a	-0.47894746
22	0x3f7b1df4	0.9809258
23	0x3fa5211b	1.2900728
24	0x3c645b20	0.0139377415
25	0xbf0e15ea	-0.5550219
26	0x3f91158a	1.1334698
27	0x3ec48996	0.3838622
28	0x3e948b2a	0.29012424
29	0x3f206165	0.6264861
30	0x3e06f490	0.1317923
31	0xbee6bb06	-0.45064563
32	0xbd24ffbf	-0.04028296
33	0x3c144274	0.009049047
34	0xbd95be80	-0.073117256
35	0x3f92a232	1.1455748
36	0xbeb12bb4	-0.34603655
37	0x3fa259a7	1.268361
38	0x3f89dd4e	1.0770662
39	0x3d5ee6e8	0.054419428
40	0x3ecc561c	0.39909446
41	0x3f7bfd24	0.98433137
42	0xbe2c56ca	-0.16829982
43	0x3fcd00de	1.601589
44	0xbe68699d	-0.22696538
45	0x3e9ef301	0.31044772
46	0xbe1a1b66	-0.15049514
47	0x3f40e7c5	0.7535365
48	0x3f34fe2e	0.7070035
49	0x3e79db0c	0.24399966
50	0x3f906f9a	1.1284058
51	0xbea28278	-0.31740165
52	0x3e0c6ed3	0.13714151
53	0x3f3fa428	0.7485986
54	0xbe36eb52	-0.17863205
55	0x3fe36707	1.7765816
56	0xbd1cb7ac	-0.0382611
57	0x3e94dfb0	0.2907691
58	0x3fb53136	1.4155643
59	0xbdfd3e7a	-0.12365432
60	0xbefbfaae	-0.4921469
61	0xbf4b5488	-0.7942586
62	0xbf20fbca	-0.628842
63	0x3e0851db	0.13312475
